weights/conv1_wt.npy (npy, 37760 bytes, 1 tensors)

array f4 [64, 3, 7, 7]
-0.0066518565 0.10412808 0.03216548 -0.028467324 0.063766874 -0.04689251 -0.06130887 -0.09730712
0.003211158 0.11738953 -0.03836652 -0.03541481 -0.0867047 -0.17351854 0.0315743 -0.017187929
0.04193712 0.0891339 0.012328266 0.0043244953 0.027083393 0.11887985 0.06653549 0.056934483
-0.0042925794 -0.089603685 -0.066324584 0.023403926 -0.0041662287 0.048847035 -0.051960573 0.092040524
-0.05141848 -0.09971211 -0.08182566 0.10843365 0.06938648 -0.0013896256 -0.01932551 0.07075282
-0.09372851 0.03758376 0.074124955 0.05876179 0.048375156 -0.024428388 0.024294011 -0.025862394
-0.10418141 0.09629893 -0.10595862 -0.1271891 0.044793632 -0.030598331 -0.024041628 -0.012594075
0.1489964 0.18392943 -0.11571807 0.0735837 -0.035770472 -0.15019396 -0.03997906 -0.033946842
-0.099384785 0.023206417 -0.08897488 -0.06154926 -0.009523737 -0.061520282 0.018256223 -0.06789064
0.0032667988 -0.041082077 0.094852656 0.00530625 -0.013784285 -0.086843185 0.06715291 0.120784044
0.0016922817 -0.06214577 -0.12412279 -0.07161056 -0.009568529 -0.0919193 -0.16972977 -0.051975653
0.09171383 0.042422872 0.003710581 0.094640724 0.088550165 0.22863767 0.023395667 -0.030923067
0.08554479 -0.04318778 0.22124125 0.053619664 0.112506695 0.0812189 -0.16780774 0.08502774
-0.13389961 0.0004021432 0.037524387 -0.08984507 -0.04741648 -0.0758473 -0.08912283 -0.16201665
0.072069526 0.07667861 0.06645068 0.017070174 -0.11460686 -0.062176254 -0.1040094 0.010868268
0.0879538 -0.070223965 -0.07353795 0.01218476 -0.09952416 -0.012263958 0.07978267 0.11308476
-0.043364804 0.04124933 0.08532446 0.045838874 0.009476781 -0.018168025 0.03208271 0.051616494
0.007110321 -0.08296516 -0.1553627 0.009574617 -0.020205999 -0.003100159 0.025362158 0.19794232
0.092992455 0.07178569 -0.0021459449 0.03560983 -0.0023764367 -0.024157343 -0.006088726 -0.013701098
0.0075149057 -0.0038572294 -0.035031926 -0.005042177 -0.01147606 0.008423439 -0.013119708 -0.030940233
-0.011836827 0.022781087 -0.015649829 -0.023431208 -0.024430012 0.016078036 -0.0023039356 0.00499006
0.01331987 0.005310063 0.005247889 0.045425195 -0.01978708 0.02916881 -0.011830597 -0.00048030622
-0.0004186358 0.017651644 0.026349759 0.034991458 -0.033150848 0.050867606 -0.029974252 0.014551336
-0.03783174 0.021931972 0.02916349 -0.03574464 -0.007495044 0.011103197 0.020889796 0.0009978169
-0.011414044 -0.027413353 -0.0011948843 -0.008863154 0.017782358 -0.012277947 -0.0011028984 -0.006830401
-0.012403184 -0.006709881 -0.03710698 0.0040120394 0.009476555 0.0011651572 -0.02279168 -0.016878204
-0.004571875 -0.05888209 -0.0047345734 0.01303055 -0.010080554 0.051087897 -0.0059656957 -0.020511983
-0.029766178 0.02299559 -0.045802895 -0.009189103 -0.040790915 0.018829176 0.026560016 -0.0027916802
-0.026630176 -0.014727729 -0.047777694 0.024437273 -5.6109824e-05 0.008293243 -0.044211 0.017638067
-0.0070790285 0.015520377 0.004043627 -0.006095199 -0.015737085 0.01553228 -0.02952417 0.04237307
0.020501282 -0.031027278 0.03125779 -0.01512026 0.0028228206 -0.02795394 -0.01368169 -0.010574499
-0.02996207 0.0033400096 -0.03180669 -0.00101351 -0.019486919 -0.025926156 0.0026350669 -0.004331642
00000000: d1f7 d9bb 1a41 d53d f3bf 033d 4e34 e9bc
00000010: 3598 823d 5c12 40bd 021f 7bbd f548 c7bd
00000020: 4b72 523b ec69 f03d 3626 1dbd 1f0f 11bd
00000030: 3c92 b1bd d8ae 31be 0e54 013d b3cd 8cbc
00000040: 42c6 2b3d d68b b63d 7ffc 493c 7fb4 8d3b
00000050: fedd dd3c 4777 f33d c243 883d 2234 693d
00000060: c4a8 8cbb 2382 b7bd 2fd5 87bd 97b9 bf3c
00000070: dc84 88bb d413 483d 9cd4 54bd be7f bc3d
00000080: 2f9c 52bd dd35 ccbd 3694 a7bd 7612 de3d
00000090: 801a 8e3d 1924 b6ba 8850 9ebc dbe6 903d
000000a0: bcf4 bfbd 6ef1 193d d3ce 973d 34b0 703d
000000b0: 0725 463d 0b1e c8bc 3c04 c73c 5fdd d3bc
000000c0: 105d d5bd 6038 c53d d500 d9bd dc3d 02be
000000d0: 8779 373d 5aa9 fabc f3f2 c4bc 6157 4ebc
000000e0: 8392 183e ff57 3c3e 98fd ecbd 0db3 963d
000000f0: 0f84 12bd 72cc 19be 15c1 23bd d80b 0bbd
00000100: 408a cbbd 621b be3c 7638 b6bd 141b 7cbd
00000110: 7309 1cbc b1fc 7bbd 138e 953c 3f0a 8bbd
00000120: ca17 563b ae45 28bd 1c42 c23d 0de0 ad3b
00000130: 7bd7 61bc d7da b1bd 7787 893d a05d f73d
00000140: 8dcf dd3a 908c 7ebd 1734 febd 8fa8 92bd
00000150: 52c5 1cbc 3040 bcbd a4cd 2dbe 6ce4 54bd
00000160: 76d4 bb3d 9bc3 2d3d 382d 733b ffd2 c13d
00000170: ca59 b53d fe1f 6a3e 45a8 bf3c 5f52 fdbc
00000180: 1b32 af3d abe5 30bd 118d 623e 4ba0 5b3d
00000190: e969 e63d 1856 a63d cbd5 2bbe 0623 ae3d
000001a0: fb1c 09be bfd6 d239 2cb3 193d b100 b8bd
000001b0: c837 42bd d455 9bbd 0886 b6bd b1e7 25be
000001c0: 3099 933d ad09 9d3d 4b17 883d c0d6 8b3c
000001d0: 00b7 eabd 87ac 7ebd e102 d5bd d210 323c
000001e0: 1f21 b43d 95d1 8fbd 119b 96bd 96a2 473c
000001f0: 53d3 cbbd c5ee 48bc 1965 a33d fc98 e73d
00000200: 4b9f 31bd 0ff5 283d 97be ae3d 8bc1 3b3d
00000210: 8044 1b3c 1cd5 94bc 2969 033d d16b 533d
00000220: b2fd e83b a3e9 a9bd 6617 1fbe dbde 1c3c
00000230: 0d87 a5bc 0a2c 4bbb 4dc4 cf3c 64b1 4a3e
00000240: d472 be3d 6004 933d fba2 0cbb 9ddb 113d
00000250: febd 1bbb 9fe5 c5bc f083 c7bb 927a 60bc
00000260: 993f f63b 92c9 7cbb a37d 0fbd d938 a5bb
00000270: 1606 3cbc 7702 0a3c 0bf4 56bc 5f76 fdbc
00000280: 40ef 41bc 679f ba3c 1234 80bc cef2 bfbc
00000290: 7321 c8bc 16b6 833c a0fd 16bb a883 a33b
000002a0: 963b 5a3c 0900 ae3b 7cf6 ab3b c50f 3a3d
000002b0: 8418 a2bc 6ef3 ee3c 1fd5 41bc 9cd1 fbb9
000002c0: 597c dbb9 2e9a 903c 73db d73c 3453 0f3d
000002d0: 2fc9 07bd 8d5a 503d 908c f5bc ba68 6e3c
000002e0: 74f5 1abd aeaa b33c 45e8 ee3c f968 12bd
000002f0: fc98 f5bb 2fea 353c 1421 ab3c 2ec9 823a
00000300: f801 3bbc f891 e0bc aa9d 9cba c336 11bc
00000310: 4fac 913c 7129 49bc 218f 90ba 8ed1 dfbb
00000320: b936 4bbc 90de dbbb 7dfd 17bd 6d77 833b
00000330: 8d43 1b3c 30b8 983a 9eb5 babc 2944 8abc
00000340: abcf 95bb 592e 71bd 7b24 9bbb 177e 553c
00000350: e828 25bc 8b41 513d e27b c3bb bf08 a8bc
00000360: 33d8 f3bc 3f61 bc3c d19b 3bbd e48d 16bc
00000370: 6014 27bd a53f 9a3c 6494 d93c 9ff4 36bb
00000380: 8727 dabc 934c 71bc 8bb2 43bd ad30 c83c
00000390: 7757 6bb8 62e0 073c 9816 35bd b57d 903c
000003a0: 32f7 e7bb 2e49 7e3c 6780 843b 3cba c7bb
000003b0: 0feb 80bc 1b7b 7e3c acdc f1bc 628f 2d3d
000003c0: 4ef2 a73c eb2c febc 2b08 003d f8ba 77bc
000003d0: 12ff 383b a9ff e4bc 2b29 60bc aa40 2dbc
000003e0: 0473 f5bc 10e4 5a3b bb47 02bd c1d7 84ba
000003f0: 08a3 9fbc 1763 d4bc 16b1 2c3b 72f0 8dbb
