weights/conv1_wt_nhwc.npy (npy, 37760 bytes, 1 tensors)

array f4 [7, 7, 3, 64]
-0.0066518565 0.03560983 0.04042676 -0.0084841335 0.11199568 -0.25253177 0.03552314 0.10016019
0.005309279 0.18950868 0.037554298 0.07551875 -0.034695014 0.14928052 0.0240111 0.0005404651
0.116453595 -0.091769524 0.085495375 -0.19758056 -0.3170939 -0.23098335 -0.020786582 -0.03709556
-0.20962414 0.0014553592 -0.008301295 0.06836282 -0.09753992 0.20105895 0.032265894 -0.07648476
0.046489973 -0.051213257 -0.14498878 0.33255127 -0.04533396 0.008036679 0.00023757794 -0.03728089
-0.07633096 -0.033615552 0.06419285 0.050216626 0.15754248 7.899406e-05 -0.049650725 -0.07739636
-0.0430785 -0.10020373 0.04799283 -0.03067756 0.045697086 -0.37842062 -0.011975971 -0.031664014
0.08884934 0.023573922 0.0640445 -0.12045604 0.03153241 0.3137039 -0.03667739 0.04131696
0.09629893 0.017782358 0.028317252 -0.041832842 0.062388454 -0.0016636959 0.06304855 -0.18606329
-0.016559193 0.019708712 -0.033444986 0.055272326 -0.013884868 -0.29812354 0.07621549 -0.181354
0.2879594 0.021231648 0.16403772 0.023548465 0.1984096 0.056676283 -0.03436021 0.107112244
0.10446812 -0.014209105 0.03572934 0.16273034 -0.058187775 -0.03462297 -0.056913976 0.062742524
-0.036983203 0.15148859 -0.23919898 -0.09941565 -0.024590837 -0.0055801133 -0.09527119 0.0015706293
-0.0056962874 0.08269068 0.059870433 0.008513559 0.1807014 0.08531394 -0.023261705 0.027423022
0.089551255 0.08624336 0.1981419 0.12406452 0.112733945 -0.05508429 -0.0018496374 0.108486734
0.071997054 0.017065143 0.072748505 0.048683852 -0.05821606 0.054057382 0.063708 0.030318016
0.22124125 -0.02795394 -0.0009963162 -0.029972987 -0.023323718 0.14506292 -0.19280359 -0.12639341
0.14622228 -0.04074038 -0.08774222 -0.05172697 -0.113818705 -0.18568364 0.08072359 -0.14056127
0.34597766 -0.052632526 0.08311484 0.042495683 -0.13059606 0.01039415 0.0073070405 -0.05443791
0.10182124 -0.0057037915 -0.05078114 -0.10649025 -0.14417434 -0.039067205 0.07107251 -0.0140561415
-0.028704898 -0.0061193407 -0.0558752 -0.1628862 0.03804242 -0.058706116 0.0026450248 0.029299036
0.0014098808 0.028199753 0.09668485 -0.028125178 -0.2104365 -0.0028740095 -0.067894965 0.100685395
-0.09207656 0.0040584123 0.26081008 -0.031353947 -0.0031555085 -0.17923486 0.019744897 0.035547283
0.059272084 -0.021951549 0.09154908 0.17941456 -0.021480592 -0.020772569 0.31075263 -0.01197023
0.10412808 -0.0023764367 -0.0040091677 0.009409109 0.14184542 -0.089333154 -0.104857065 0.07110087
0.033563502 0.02358007 0.037411343 0.10904228 -0.13374434 -0.0030353288 -0.057810966 0.2646731
0.08573874 0.11432445 -0.17484722 -0.12542452 -0.18942933 -0.14732642 0.009099788 0.082253076
-0.073449016 -0.009170946 0.0058126193 -0.12204849 -0.11743653 0.1711593 -0.022565145 0.11756128
0.12910852 -0.09369168 -0.13428564 -0.014615955 0.009163822 0.039889965 0.15563072 0.02956093
-0.04309889 0.0047216644 0.08536911 0.17118056 0.046532407 0.12550338 0.04885218 0.25877538
-0.09626571 -0.17292468 0.12799361 0.037442572 0.08135513 -0.0024406556 -0.024382902 -0.02399548
0.18749021 -0.038309094 0.067662224 0.047312584 0.13174888 -0.04553184 -0.0018432401 0.054731116
00000000: d1f7 d9bb 9ddb 113d 8896 253d 0901 0bbc
00000010: fe5d e53d d84b 81be b680 113d c920 cd3d
00000020: 76f9 ad3b 900e 423e 89d2 193d 93a9 9a3d
00000030: 5c1c 0ebd fedc 183e edb2 c43c 00ae 0d3a
00000040: 397f ee3d a9f1 bbbd 3318 af3d 8f52 4abe
00000050: 225a a2be e686 6cbe 9f48 aabc 84f1 17bd
00000060: b6a7 56be c0c1 be3a 2802 08bc ce01 8c3d
00000070: 02c3 c7bd 66e2 4d3e 3e29 043d 0ba4 9cbd
00000080: 456c 3e3d fec4 51bd f077 14be 2944 aa3e
00000090: 1ab0 39bd 46ac 033c 581e 7939 d9b3 18bd
000000a0: 6853 9cbd 76b0 09bd 8a77 833d f3af 4d3d
000000b0: d152 213e 9da9 a538 8f5e 4bbd fc81 9ebd
000000c0: 1573 30bd 9d37 cdbd 2194 443d 824f fbbc
000000d0: de2c 3b3d 59c0 c1be dd36 44bc 20b2 01bd
000000e0: a5f6 b53d 191e c13c c329 833d a8b1 f6bd
000000f0: 2128 013d cc9d a03e 083b 16bd f93b 293d
00000100: 6038 c53d 4fac 913c 95f9 e73c ea58 2bbd
00000110: 098b 7f3d 5f10 daba 991f 813d 6087 3ebe
00000120: 25a7 87bc 2a74 a13c 9cfd 08bd 3c65 623d
00000130: 5b7d 63bc a6a3 98be de16 9c3d ddb4 39be
00000140: 6a6f 933e feed ad3c 81f9 273e b6e8 c03c
00000150: e32b 4b3e 6425 683d 4bbd 0cbd aa5d db3d
00000160: 62f3 d53d 4ecd 68bc ee58 123d c8a2 263e
00000170: 4e56 6ebd d1d0 0dbd a11e 69bd 277f 803d
00000180: b37b 17bd d31f 1b3e 94f0 74be 6f9a cbbd
00000190: b972 c9bc 62d9 b6bb 8b1d c3bd 93dd cd3a
000001a0: eca7 babb bb59 a93d b33a 753d 747c 0b3c
000001b0: ca09 393e 13b9 ae3d 558f bebc 3fa6 e03c
000001c0: a666 b73d 5ca0 b03d b6e5 4a3e 8a15 fe3d
000001d0: 0ee1 e63d 11a0 61bd 886f f2ba 4b2e de3d
000001e0: 3173 933d 33cc 8b3c 2bfd 943d b868 473d
000001f0: f773 6ebd 466b 5d3d 5779 823d 7d5d f83c
00000200: 118d 623e a9ff e4bc d396 82ba e989 f5bc
00000210: 6211 bfbc 608b 143e 4e6e 45be 466d 01be
00000220: 4bbb 153e 62df 26bd 31b2 b3bd a9df 53bd
00000230: c819 e9bd da23 3ebe 6952 a53d 4bef 0fbe
00000240: fc23 b13e 3495 57bd 1d38 aa3d f40f 2e3d
00000250: f9ba 05be 3a4c 2a3c e66f ef3b 49fa 5ebd
00000260: a787 d03d dfe6 babb e2ff 4fbd 8f17 dabd
00000270: 70a2 13be ef04 20bd 778e 913d bb4b 66bc
00000280: 8926 ebbc c084 c8bb 65dd 64bd a4cb 26be
00000290: 5ed2 1b3d d375 70bd 2758 2d3b 8804 f03c
000002a0: c0cb b83a 2b03 e73c b502 c63d c666 e6bc
000002b0: aa7c 57be e159 3cbb 840c 8bbd 2534 ce3d
000002c0: a392 bcbd 6efc 843b e688 853e ff6c 00bd
000002d0: a6cc 4ebb 5889 37be 0dc0 a13c 079a 113d
000002e0: 49c7 723d bcd3 b3bc 167e bb3d 73b8 373e
000002f0: 11f8 afbc 3c2b aabc f81a 9f3e c91e 44bc
00000300: 1a41 d53d febd 1bbb 565f 83bb aa28 1a3c
00000310: ed3f 113e 4df4 b6bd 4dbf d6bd 559d 913d
00000320: e279 093d fe2a c13c a33c 193d 8f51 df3d
00000330: 47f4 08be 5eec 46bb 31cb 6cbd 3c83 873e
00000340: cb97 af3d f022 ea3d 260b 33be 496f 00be
00000350: c3f9 41be bddc 16be 4717 153c 4d74 a83d
00000360: 706c 96bd bc41 16bc c977 be3b 8ff4 f9bd
00000370: 9082 f0bd 6244 2f3e 8ada b8bc f8c3 f03d
00000380: 0635 043e 6ce1 bfbd 2d82 09be c277 6fbc
00000390: db23 163c a963 233d a95d 1f3e c329 f23c
000003a0: 7688 30bd 31b8 9a3b 00d6 ae3d f549 2f3e
000003b0: c498 3e3d f583 003e 3919 483d 357e 843e
000003c0: f526 c5bd 2b13 31be c210 033e 625d 193d
000003d0: 859d a63d 68f3 1fbb a7be c7bc 2b92 c4bc
000003e0: 6ffd 3f3e ffe9 1cbd 7e92 8a3d d7ca 413d
000003f0: 2ee9 063e 987f 3abd e098 f1ba bc2d 603d
